model/keypoint_classifier/keypoint_classifier.tflite (tflite, 6780 bytes, 6 tensors)

sequential_2/dense_8/BiasAdd/ReadVariableOp f4 [10]
00000000: 4eda bdbd 6a0c 813f f20c 7fbe 8cd7 cf3e
00000010: 4d67 713e 5f62 18bf 75e2 0e3f 7a05 5cbf
00000020: a76a 1cbf e78a 3fbe
-0.09270154 1.0081913 -0.24907282 0.40594137 0.23574562 -0.595251 0.55814296 -0.85945857
-0.6110024 -0.18705331

sequential_2/dense_7/BiasAdd/ReadVariableOp f4 [10]
00000000: 6fc6 4b3f 2076 64be dffe 0c3e d79b 1bbf
00000010: 9abc 4a3e 49f6 0c3f 15f5 bf3f c29b a43e
00000020: 37f1 53be 6de2 3fbf
0.7959966 -0.22310686 0.137691 -0.6078467 0.19798508 0.550633 1.4996668 0.32150084
-0.20697485 -0.74954873

sequential_2/dense_6/BiasAdd/ReadVariableOp f4 [20]
00000000: 285e 8dbd ee42 93be 056b fcbe 08f2 88bf
00000010: 9eae 003f 6fd1 e33e 6a90 e2be a2d9 043e
00000020: df08 fbbe c963 46bf fdb0 5ebf 4b74 7cbe
00000030: 0d57 f33e 0909 49bf 606b d03e e3f3 45bf
00000040: bc69 59bf 6fa6 01bf 8051 6d3d 8386 8a3e
-0.069027245 -0.28762 -0.493004 -1.0698862 0.50266445 0.44495723 -0.44250804 0.12973645
-0.49030206 -0.7749601 -0.8698881 -0.24653737 0.47527352 -0.7852941 0.4070692 -0.77325267
-0.8492696 -0.5064458 0.057939053 0.2705575

sequential_2/dense_6/MatMul f4 [20, 42]
00000000: c05e 283c f23d 14be 7f63 7ebe 6c45 42be
00000010: 12ae 5ebe e4b8 43be ca4f a5bb f4fc 64be
00000020: f897 123d 6234 11bf 6685 76be 8b93 2ebf
00000030: 5bca 94bd ad37 803e d7ee d4bd 24e6 f53e
00000040: 2183 9dbd 4d37 ad3e 225b 19be 6b41 2abf
00000050: 16d9 bebd 72f5 a23e 9533 f23b a1dc ca3e
00000060: 9587 72bd dcae 643e e39e 673d 7986 32bf
00000070: 4fc5 003e 54a2 143f edaf 0b3d 9d77 293f
00000080: caf2 6f3c 2645 c03e 7642 993e 55e8 17bf
00000090: e1cd 0c3e 731e 183f 4a32 9a3d a2f1 5a3f
000000a0: d13f 5f3d 4208 043f 1499 46be 88da 2b3e
000000b0: 5b52 3bbf 9fc9 423f 3a9f 0fbf 2afa dc3e
000000c0: 6b19 18bf 1757 273f b5de 4fbf 25a2 0c3f
000000d0: bc6f 86be 5845 df3c 52af edbe d4bb 0d3e
000000e0: 436f d6be 398a 263e ee10 09bf 7793 443e
000000f0: b83c 57be f967 db3b 3eb0 0abe 06ee 223e
00000100: 58f7 99be 6774 423e 0ad6 e7be 72cf 2c3e
00000110: 698a 2abe e4a9 4a3d 2536 0cbe f4e0 793e
00000120: 9590 9abe 8dc1 563e 6935 0fbf b3fe 1b3e
00000130: ea65 b93d f9f0 07bd 328b 1d3d 9307 8b3e
00000140: 19f0 89be d38a 0d3e 0bf2 babe 79a5 8c3e
00000150: 2ed8 983e 360d 393e b6ae dc3b ca70 0e3e
00000160: 724c 3abc a830 af3b 9c99 c9bd cdd3 c53d
00000170: 6063 9b3c 07ea 273e 8f29 eabe 5e69 ac3e
00000180: 2ead 81be 7725 a93d c4b5 4d3d 17e5 59be
00000190: cb7c a63e 4492 6fbe ca33 8cbe f7f8 e33e
000001a0: 4d4e 87be c1a2 243d f131 9b3e 8f0f 35bf
000001b0: f5c1 0e3f d1e5 55bf dfac bdbe 6d7f 083f
000001c0: 91f8 a5be 27f7 45bd d366 a13e b43e 1cbf
000001d0: 6f20 453f 026b 68bf 40db 27be 235e 0b3f
000001e0: 5ce3 88bd 2c79 ce3d f428 a63e cc0d 9ebe
000001f0: e679 2b3f 5a43 53bf da6d 853e 6aa5 6bbe
00000200: 2f12 2b3d bf39 51bf 1795 cd3d d3fe bbbe
00000210: 865b d7bd 03b1 0fbe 5636 04bd d650 64bd
00000220: 0317 d13e 61fc 26be 2749 163e 675d cdbd
00000230: 92f7 a1be 5b68 243d 64fc 02bf a76d e23d
00000240: 70d5 f83e 719b 9fbd 19d2 423e 752c aabd
00000250: 97cf 7abe 41e8 8dbc cf0b 18bf be23 343d
00000260: 96e7 ac3e d775 8ebc cbd7 0e3d 7733 63bd
00000270: 0c46 0ebf c5dc 1abd 60b7 56bf 2300 73bc
00000280: 1133 513e a93c c7bc 4fb4 e5ba 8a67 a7bd
00000290: b8bb cdbe 4d45 ccbc 2492 39bf b2d4 c7bb
000002a0: f088 c43c 70e1 223d 12e7 8a3d 9f6e 98bf
000002b0: 1b7c 173e b798 4ebf 0160 af3d a12d 20bf
000002c0: 29f6 b13d 4b3a fabe a070 4cbd 8a52 debb
000002d0: 1c9e b2bd cedc 443c 9ac2 0bbd 98ed 80bd
000002e0: 7fbe debc dff0 b1be f799 69bc e3e4 513e
000002f0: 90c7 a63c ec75 103e 46de 93bd fab7 a23d
00000300: 67ee 90bc 504b 073e 064b 2cbe ca50 a23e
00000310: faa7 bc3d 02a2 8a3e 5b78 20be f438 753e
00000320: 4a35 3cbd 51a4 323e 6ede 51bd b0ef 073f
00000330: 2fc1 af3d 12f0 d23e 997e 6f3d 600c b73e
00000340: 5a02 003c f39e ba3e c0d0 2bbc fc8a d23d
00000350: 3aab e1be 3f41 c63e 3022 13bf 5057 c53e
00000360: 2df6 f2be f300 f23e 6c84 d6be e3f8 cd3e
00000370: b2bd f1be 208c 1d3d 908a f2bd 34bc 493e
00000380: e511 a33d 7e00 d23e 9062 163e 302d 123f
00000390: 5539 40be 1651 03be 79f0 793d e8ba b23d
000003a0: ec5a a33e 449b a73e 0cbf be3e a950 e03e
000003b0: d318 723e 195f a6be 548c e33e e5f8 853e
000003c0: 8447 973e 7203 003f 5480 f43e 962c e43e
000003d0: 736f b13e 2be5 f9bd 0fd5 fd3e 197f 303e
000003e0: 14ed 093f b051 043f 6b57 e23e ba71 883e
000003f0: e647 973e c816 01bd 076e 33be 7413 b33f
0.010276496 -0.14476755 -0.24842642 -0.18971795 -0.2174609 -0.19113499 -0.005044912 -0.22362119
0.03578946 -0.56720555 -0.24074325 -0.6819388 -0.07265159 0.25042477 -0.103971176 0.48027146
-0.076910265 0.33831254 -0.1497617 -0.6650607 -0.093187496 0.31827885 0.007391403 0.39621451
-0.059211332 0.22332329 0.05654801 -0.6973644 0.12575267 0.58060193 0.034103323 0.6619814
0.014645288 0.37552756 0.29933518 -0.59338886 0.13750412 0.5942146 0.07529123 0.8552495
0.05450422 0.515751 -0.19394332 0.16782582 -0.7317254 0.760889 -0.56102335 0.4315961
-0.59413785 0.65367264 -0.811992 0.5493491 -0.26257122 0.027254745 -0.4642282 0.13841182
-0.4188176 0.16263665 -0.5354146 0.19196878 -0.21019256 0.006695744 -0.13543794 0.15911111
-0.3007152 0.18989716 -0.45280486 0.16876009 -0.16654362 0.049478427 -0.1369253 0.24402219
-0.30188432 0.20972271 -0.5594087 0.15233879 0.09052642 -0.033188794 0.038462825 0.27154216
-0.26940992 0.13822488 -0.3651279 0.27469996 0.29852432 0.18071446 0.0067346944 0.13910213
-0.011370765 0.0053463764 -0.09843752 0.096595384 0.018968284 0.16397868 -0.45734832 0.3367414
-0.25327438 0.08259099 0.050222173 -0.21278797 0.32517084 -0.2339564 -0.27383262 0.44525883
-0.26426926 0.040194277 0.3031154 -0.70726866 0.55764705 -0.83553797 -0.37045953 0.53319436
-0.32416204 -0.048331406 0.3152376 -0.6103318 0.77002615 -0.9078828 -0.16392231 0.54440516
-0.0668399 0.100817055 0.3245312 -0.308699 0.6698288 -0.82524645 0.26060373 -0.23012319
0.041765388 -0.8172874 0.10038202 -0.36717853 -0.105155036 -0.14032368 -0.03227838 -0.055741154
0.4083787 -0.16307212 0.14676343 -0.10027581 -0.31634194 0.040138584 -0.5116637 0.11056071
0.4860034 -0.0779332 0.19025458 -0.08309261 -0.24493252 -0.017322661 -0.5939302 0.0439794
0.33770436 -0.017390175 0.034873765 -0.055469003 -0.55575633 -0.0378082 -0.8387356 -0.014831576
0.20429637 -0.024320917 -0.001752505 -0.081740454 -0.4018228 -0.024935389 -0.7248862 -0.0060983533
0.023991078 0.039765775 0.067823544 -1.1908759 0.14793436 -0.80701774 0.08563233 -0.62569624
0.086895294 -0.488726 -0.049912095 -0.0067847418 -0.08721563 0.012015535 -0.034121133 -0.062953174
-0.027190445 -0.34754083 -0.0142578995 0.2049747 0.02035883 0.14107484 -0.0722013 0.07945247
-0.017691804 0.13212323 -0.16825494 0.31702262 0.092117265 0.27076727 -0.15670912 0.23947507
-0.045949258 0.17445494 -0.051237516 0.5310011 0.08581769 0.41198784 0.058470342 0.3575163
0.007813061 0.36449394 -0.010486782 0.102804154 -0.44075948 0.38721654 -0.5747404 0.38543177
-0.47453442 0.4726635 -0.41897905 0.40228948 -0.4721504 0.03846371 -0.11842835 0.197007
0.079623975 0.41016 0.14686036 0.571002 -0.1877187 -0.128239 0.06102035 0.08727056
0.31905305 0.32735646 0.37255132 0.4381154 0.23642282 -0.3249443 0.44443 0.26166454
0.2954675 0.5000526 0.47754157 0.44565266 0.34655342 -0.122019134 0.49576613 0.17235984
0.5387738 0.51687145 0.4420732 0.26649266 0.29547042 -0.031515867 -0.17522441 1.3990312

sequential_2/dense_7/MatMul f4 [10, 20]
00000000: 5d83 95bc 08e3 adbd 63d0 763f 1f60 ea3e
00000010: 5bd0 153f dd85 233e 84a7 fe3d 422f a33e
00000020: 9792 7abe fe5e e43c 5475 603f a748 0abe
00000030: 9ee1 a9be 20a6 0a3f bba2 a2bd ad00 67bc
00000040: b0a5 823e 29bb e33c ed0c fbbd 5088 2e3f
00000050: a6e7 0c3f 7e7e 093f 1f27 4e3d a06b ac3e
00000060: 6d50 8f3f c83b 083f 3c55 22bf 62f2 a73f
00000070: 4cee cc3e c88a c33e 8111 803e 2321 0f3f
00000080: b09f 033f e61d 613e 1cbc 1c3f 406b 6cbf
00000090: 9ad5 e13d 3079 003f 49c9 733f 1dfa 4c3f
000000a0: 919b 693f 4b31 603f 6c22 323e 2602 133e
000000b0: 75ce 1bbf 4aff 623f 73d0 913f 4323 42bf
000000c0: ef7e 4b3f 1dbb 40be 143a a83e 1862 4c3f
000000d0: 7bc5 3f3f b3ae 183e 7ddd 113f 3386 173f
000000e0: 8b43 0bbe 2228 5b3f f960 fc3e b2f3 36bf
000000f0: 5ed9 50be 3f38 4fbf 53b8 143f 6759 ce3e
00000100: bb5e 65be 7972 2f3e 123f 7b3e 9efe 82bd
00000110: 26bc 0a3f 7339 5f3f b995 92be 0183 3c3f
00000120: 5a0f edbd b3e7 97bd c601 f83e cfbf 84bc
00000130: 98dc 6a3f 99d9 93bf ba26 3ebe c6f1 de3e
00000140: 36bc 233f 127c 4c3f b371 5ebd 6b8a 093f
00000150: d773 0f3f dcef 09be d238 afbc 920f 433f
00000160: 42a0 94bf 04b3 133e 702f 08bd c793 35bf
00000170: 0f5a 09bf e61e 9f3c 92fd d7bd 6c18 0e3e
00000180: 5e24 083f b286 053f a04d 523e ad66 fa3e
00000190: d1c9 a4be b7e8 8e3e d6f7 be3e 9ed1 f7be
000001a0: 1f04 193c b1dd 08bf 3565 953e 15a2 23bd
000001b0: 766a 38be 0aa5 d3be e586 9a3e 83c3 82bd
000001c0: 3b9e c53e 86d6 c13e dc68 42bf 6700 d5bd
000001d0: 6f78 c3be e221 b23e 04e3 633f 9235 bd3c
000001e0: 16b5 06bf 0478 f3be 33be de3e bcac 9bbc
000001f0: 35ff 7c3e 99f7 54bf b653 ee3e 209f a6bd
00000200: 0791 49bf 79cd 123e a122 813e 8bc7 0fbf
00000210: 2292 afbc 591f ce3e 8b1c 66bf e92f 843f
00000220: aa8f dabc 95f9 2cbf 79a0 83bf ad2e 673e
00000230: d494 44bf 05dd 1a3e 5778 04bf eba5 99bf
00000240: 47a1 3d3d 9151 61bf 18f2 b1bd fa17 e23b
00000250: fd33 993e 9445 e93e 9aeb c33d c4a9 c93e
00000260: d0b4 a63d 6baa 333e f56f 04be 6aa8 643d
00000270: 7375 643e 8172 b73e 06c5 533d 8ad2 753d
00000280: 9278 5ebf 1507 653e 303a db3e ebef 5ebe
00000290: a8f2 4c3e 4a76 553f 2468 023f 9903 c4bd
000002a0: 586f a23e 3cbd e73e 4451 a6be 9979 e13c
000002b0: b048 833f 840a 67be ac43 933e 2ea9 babc
000002c0: fe49 303f bc77 dd3e 9364 8c3e 4cc4 68be
000002d0: 1719 3fbf 96db 153f 1644 133f bd75 863f
000002e0: 7a61 133c bc3d 243e 1886 863e 0d0d 7e3e
000002f0: 1919 373f 57f0 b73e f668 493f f5d3 d0bc
00000300: 9fdd 77be 8cab 3c3f 3665 1fbe a67e d33e
00000310: 2a65 f63e df76 4a3f 136b f2bd 2247 4bbd
-0.018251115 -0.084905684 0.9641172 0.4577646 0.5852105 0.15969034 0.12434295 0.31871992
-0.24469982 0.027877327 0.8767903 -0.13504277 -0.33179945 0.54159737 -0.079411946 -0.014099282
0.25517035 0.027799206 -0.12258325 0.68176746 0.5504097 0.53708637 0.050330278 0.3367586
1.1196419 0.5321622 -0.6341131 1.3120844 0.40025556 0.3819182 0.25013354 0.5590994
0.5141554 0.21984062 0.6122453 -0.9235115 0.110270694 0.5018492 0.9522901 0.8006914
0.91253 0.87575215 0.17395943 0.14356288 -0.60861903 0.8867079 1.1391739 -0.75835055
0.7949056 -0.18821378 0.3285681 0.7983718 0.74910706 0.14910392 0.5697859 0.59189147
-0.13599984 0.8560811 0.49292734 -0.714656 -0.20395419 -0.809452 0.58093756 0.40302584
-0.22399418 0.17133512 0.24535778 -0.063962206 0.5419334 0.87197036 -0.28629854 0.73637396
-0.11575194 -0.0741724 0.48438853 -0.016204743 0.9174285 -1.155078 -0.1856946 0.43543833
0.6395906 0.79876816 -0.05430765 0.53726834 0.5603613 -0.13470405 -0.021389399 0.76195633
-1.1611407 0.14423758 -0.033248365 -0.70928615 -0.53653044 0.019423913 -0.105464116 0.13876504
0.5318049 0.52158654 0.20537424 0.4890646 -0.32185224 0.27911922 0.3729846 -0.48402113
0.009339361 -0.53463274 0.29178777 -0.039949495 -0.18009362 -0.41336852 0.3018104 -0.06384947
0.38597283 0.3785898 -0.7594125 -0.10400467 -0.3817782 0.34791476 0.89018273 0.023096833
-0.52620065 -0.47552502 0.43504485 -0.019003265 0.24706729 -0.83190304 0.4654824 -0.081358194
-0.7873692 0.14336194 0.25221732 -0.56163853 -0.021431986 0.4025829 -0.89887303 1.0327121
-0.026679832 -0.6756833 -1.0283347 0.22576399 -0.76789594 0.15123375 -0.51746124 -1.2003759
0.046296384 -0.88015085 -0.08688754 0.006899831 0.29922476 0.45560896 0.09566422 0.39387333
0.08139956 0.17545478 -0.12933333 0.055824675 0.22310428 0.35829547 0.051701568 0.06001524
-0.86902726 0.22365983 0.4281783 -0.21771209 0.20014441 0.8338362 0.50940156 -0.09570999
0.31725574 0.45261562 -0.32483876 0.027523803 1.0256557 -0.22562605 0.28762567 -0.02278575
0.68862903 0.43255413 0.27420482 -0.22731131 -0.7464766 0.58538187 0.57525766 1.0504681
0.008995408 0.16039175 0.2627418 0.24809666 0.7152267 0.35925552 0.7867578 -0.025491694
-0.24205635 0.7369926 -0.15565953 0.41307563 0.48124057 0.7908763 -0.11836829 -0.049628384

sequential_2/dense_8/MatMul f4 [10, 10]
00000000: b479 df3e c48d 37bf d4e1 84be 3043 10bf
00000010: f557 ecbf 141f 723f 18f8 fe3d 02ba 84bd
00000020: 08d5 08be df6c 77be d60d 0d3f 55bd 20bf
00000030: 786d b5bf 1562 8ebf 5e21 6fbe d7f7 b23e
00000040: 589d 703f c3c3 77bf b7f8 b7bf 0d07 a2bf
00000050: 5bac 9cbf fb77 613f 90c3 ca3e 207f 81bf
00000060: 3a5c 54bf 85b7 36be 1cab 86bf 5bbd 733e
00000070: 44a0 543e c6c0 59bf ea38 fd3d a7d4 8ebe
00000080: 5a26 82bd 8fe9 0dbf 56c7 a2be b13a a8be
00000090: 541b e63e 35cb abbf 99d3 5dbf 7436 1d3e
000000a0: 16ad 1f3d db66 0a3f 7fe2 29bf 62ff 293f
000000b0: 663e 683f 1c9f 59bf 27b7 82bf b8f4 f5be
000000c0: b393 293e 63d0 6bbf daab a1bf 7069 85be
000000d0: 8c64 8f3e 1c75 c93e 500e 91be 6d3f 463f
000000e0: da22 3cbf aa08 ccbd c3b6 6a3f cfd6 92be
000000f0: ebbf 30bf c4d3 fbbe c973 693f 7c74 57be
00000100: bc95 d63b 1652 68bf 3667 a3be 700a 0a3e
00000110: fc20 c53d a312 e8be 3157 fb3e ebdc 5dbd
00000120: 5faa 5bbf 5b6c 293e 5b23 133e 9d60 87be
00000130: 51e8 5bbe 954e 8b3e dc1b 0f3e 0565 ea3e
00000140: 8502 d43b 7f8c 20bf b011 523e cbd3 413f
00000150: c7d9 8bbe df9b 25be 9c99 cebe 40f1 2d3e
00000160: 4b87 bdbe feca 513f 3021 a33e 13ce 1d3f
00000170: 5e79 11bf 702e ff3e 3440 083e ea26 f83d
00000180: 0a4b 96bf e4d1 a2be a221 613e b0fa a93d
0.4364754 -0.7170069 -0.25953543 -0.5635252 -1.8464342 0.9457867 0.12449664 -0.06480791
-0.13362515 -0.24162625 0.55099237 -0.627889 -1.4174032 -1.1123682 -0.23352572 0.34954712
0.9399009 -0.96783084 -1.4372777 -1.2658402 -1.2240099 0.880737 0.39602327 -1.011692
-0.82953227 -0.17843445 -1.0520968 0.23802702 0.20764261 -0.85059774 0.12364371 -0.27896616
-0.06354971 -0.5543451 -0.31792706 -0.32857278 0.44942725 -1.3421389 -0.86651 0.15352803
0.038983427 0.54063195 -0.6636123 0.6640531 0.9072021 -0.85008407 -1.0212144 -0.48038268
0.16560249 -0.9211485 -1.263057 -0.26057005 0.280064 0.3934716 -0.28331232 0.7744053
-0.7349068 -0.0996259 0.9168512 -0.2867951 -0.69042844 -0.49185002 0.911923 -0.21040529
0.0065486114 -0.90750253 -0.3191468 0.13480544 0.09625432 -0.4532672 0.4908996 -0.054165762
-0.8580684 0.1654524 0.14368956 -0.26440898 -0.2147534 0.2720839 0.13975471 0.45780197
0.006470027 -0.6271438 0.2051456 0.75713795 -0.27314588 -0.16172741 -0.4035157 0.16986561
-0.37017283 0.81950366 0.31861258 0.6164257 -0.56825817 0.49840117 0.13305742 0.12116797
-1.174165 -0.3180076 0.21985486 0.08299768
